next-app/public/policy_text_conditioned.onnx (onnx, 331148 bytes, 12 tensors)

obs_encoder.0.weight f4 [128, 58]
0	0xbdc04e79	-0.093899675
1	0x3c766fb3	0.01504128
2	0xbd369415	-0.044574816
3	0x3d4f616c	0.050630018
4	0xbe01595b	-0.12631743
5	0xbdb7b814	-0.08970657
6	0xbceb59a1	-0.028729262
7	0x3c76e6c5	0.015069668
8	0x3cea5ca7	0.028608633
9	0x3d83fece	0.064450845
10	0x3df6d414	0.120521694
11	0xbca5ee36	-0.02025519
12	0x3cbf1c8c	0.023329042
13	0xbd64e02e	-0.055877857
14	0x3db8a732	0.09016265
15	0xbcb184a3	-0.021669691
16	0x3c19aef2	0.009380089
17	0xbda41431	-0.08011664
18	0x3c3c047e	0.01147568
19	0xbca56a0d	-0.02019217
20	0x3bcee34e	0.006313718
21	0x3ce7fd9a	0.028319169
22	0x3d3c8d3f	0.04603314
23	0xbd1d311d	-0.038376916
24	0x3c3ee4ae	0.011651201
25	0xbc545815	-0.0129604535
26	0xbe050db9	-0.12993516
27	0x3cfde69d	0.030993754
28	0xbc589d70	-0.01322113
29	0xbd59c75d	-0.053168643
30	0x3d7cb461	0.06169546
31	0xbda34922	-0.07972933
32	0xbdee1181	-0.11624432
33	0xbd6f4007	-0.05841067
34	0xbdd27c74	-0.10277644
35	0xbe025a3e	-0.12729737
36	0x3d860876	0.065445825
37	0xbca6448f	-0.020296363
38	0x3b376e11	0.0027989189
39	0xbd23af40	-0.039962053
40	0xbdb2e0b6	-0.087342665
41	0x3d5a5ee6	0.05331316
42	0xbd904b43	-0.07045605
43	0xbdd200d5	-0.10254065
44	0x3d79d22d	0.060991455
45	0xbc2f2a6d	-0.010691267
46	0x3d0d3c1b	0.03448115
47	0x39fe393d	0.000484893
48	0x3b80f5cb	0.003935551
49	0x3b914803	0.0044336333
50	0x3dab41c3	0.083621524
51	0xbcad4137	-0.02114926
52	0xbb679631	-0.0035337324
53	0x3cac9472	0.021066878
54	0xbdeea67c	-0.11652848
55	0xbd35e120	-0.04440415
56	0xbdc443c6	-0.09583239
57	0x3ce8b697	0.028407378
58	0x3cb902ff	0.022584436
59	0xbdaa2df5	-0.08309547
60	0x3dc19772	0.09452714
61	0xbdb1ae59	-0.08675832
62	0x3dd4c758	0.10389584
63	0xbd3cd9eb	-0.04610626
64	0x3cc1a791	0.023639472
65	0xbda6d1c2	-0.08145477
66	0x3d95fedf	0.073240034
67	0x3de84168	0.113406
68	0xbcf44371	-0.029817315
69	0x3dafc5fe	0.08582686
70	0x3d82005c	0.06347725
71	0xbddbca9b	-0.10732003
72	0x3da90c10	0.08254254
73	0xbac25efc	-0.0014829333
74	0x3dd5d7a3	0.1044152
75	0xbd47fbb5	-0.04882403
76	0x3c2496e3	0.01004574
77	0x3c7920d7	0.015205584
78	0xbcc5da6e	-0.024152007
79	0xbdaf62da	-0.08563776
80	0x3d77a852	0.060463257
81	0xbde4e12a	-0.11175759
82	0x3cf4ff6b	0.029906949
83	0x3c9dafc2	0.019248847
84	0xbce61d82	-0.028090242
85	0x3d2df005	0.04246523
86	0xbc01f569	-0.0079320455
87	0x3be2e284	0.0069239754
88	0x3dbf26ef	0.09333598
89	0xbdce2cb3	-0.100671194
90	0xbdf79e69	-0.12090761
91	0x3d9149b0	0.07094133
92	0x3d885faa	0.066588715
93	0x3ca03fc9	0.019561665
94	0xbdf1c323	-0.118047975
95	0x3cf22627	0.029559208
96	0xbd21b040	-0.039474726
97	0x3e0a342e	0.13496467
98	0xbc4eecdc	-0.012629714
99	0xbd3b594d	-0.04573946
100	0x3dceba2c	0.10094103
101	0x3bcda7e5	0.006276118
102	0xbd8d2777	-0.06892293
103	0x3d90a607	0.07062917
104	0xbc9a602c	-0.018844686
105	0xbddcd048	-0.10781914
106	0x3cbfa319	0.0233932
107	0x3c170d7e	0.009219525
108	0xbc823685	-0.015895138
109	0xbd2b9619	-0.04189119
110	0x3b9863cd	0.004650569
111	0xbdc9d253	-0.09854569
112	0x3da2ad1d	0.07943175
113	0xbc5da817	-0.013528845
114	0xbdc44d43	-0.09585049
115	0x3d0d1fa2	0.034453996
116	0x3df4c9d2	0.11952557
117	0x3ddfefba	0.10934396
118	0xbdfccafc	-0.12343404
119	0x3c4759e6	0.01216743
120	0xbd823db2	-0.06359424
121	0x3de9fdab	0.114253365
122	0x3dd1b591	0.10239709
123	0xbd990273	-0.0747117
124	0x3cef3c51	0.029203566
125	0xbd8cc1ee	-0.06872927
126	0xbd106da0	-0.035260797
127	0xbd6670c9	-0.056259904
128	0x3ddb3ec6	0.107053325
129	0xbde8f79d	-0.113753535
130	0x3de9a903	0.114091896
131	0xbd17685f	-0.03696477
132	0xbc64d48f	-0.013966694
133	0xbd9857fb	-0.07438656
134	0xbd8ab2fa	-0.06772418
135	0xbd269408	-0.040668517
136	0x3df02020	0.11724877
137	0x3d56bf58	0.052428573
138	0xbde68390	-0.11255562
139	0xbd96c0d1	-0.073609956
140	0xbd9341de	-0.071902975
141	0xbd32f6cd	-0.0436924
142	0xbd67101f	-0.05641186
143	0xbd8d3bde	-0.068961844
144	0x3d378a7c	0.044809803
145	0x3d905e20	0.07049203
146	0x3dcd934e	0.10037862
147	0x3d6a49a0	0.05719912
148	0xbd9e25ea	-0.07722075
149	0x3d81cc05	0.06337742
150	0x3e0f0d80	0.13969994
151	0x396fd0ee	0.00022870649
152	0x3de26c8f	0.11055862
153	0x3bbf3eaf	0.00583633
154	0x3dab1f22	0.083555475
155	0xbd7eec62	-0.06223715
156	0xbd6edf52	-0.058318444
157	0x3d6cfd2a	0.057858624
158	0x3df91911	0.12162984
159	0xbdb826fe	-0.08991812
160	0xbcffc349	-0.031221049
161	0x3e0d7c47	0.1381694
162	0x3c63b672	0.013898479
163	0x3d22c140	0.03973508
164	0xbb8cc218	-0.0042955987
165	0x3db2dac7	0.08733135
166	0x3d13bcf4	0.03606887
167	0xbc1a42e4	-0.009415362
168	0xbdbb0333	-0.091314696
169	0x3b5628f8	0.0032678228
170	0xbd050482	-0.032475002
171	0xbcb8c1f9	-0.02255343
172	0xbd408036	-0.04699727
173	0x3c8b7741	0.017024638
174	0xbd4690a9	-0.048477802
175	0x3d2cf27f	0.04222345
176	0xbd493999	-0.049127195
177	0x3c2319df	0.009954899
178	0xbce239bc	-0.02761542
179	0x3dcf6f63	0.10128667
180	0xbcba5137	-0.022743804
181	0x3de385be	0.11109494
182	0xbd5f7875	-0.054558236
183	0x3cc79099	0.024360942
184	0xbcc1f82f	-0.023677913
185	0xbe019693	-0.12655096
186	0xbdf5225f	-0.119694464
187	0xbad3f539	-0.0016171105
188	0xbddb2912	-0.10701193
189	0x3de8cd65	0.11367301
190	0x3db47385	0.08811096
191	0x3df8dad5	0.12151114
192	0xbd46ccd7	-0.048535194
193	0x3dc51a04	0.09624103
194	0xbd99f17d	-0.07516763
195	0xbdc098a9	-0.094041176
196	0x3dab32da	0.083593085
197	0x3cadcbd6	0.02121536
198	0xbcaf3912	-0.021389518
199	0x3da5aee5	0.08089999
200	0xbdb056ee	-0.086103305
201	0x3d81e0c0	0.06341696
202	0x3ddab658	0.106793106
203	0x3d6e4e74	0.058180287
204	0xbe0f6a3d	-0.1400537
205	0xbbd3c6af	-0.006462894
206	0x3d1afca9	0.03783861
207	0x3dbfb810	0.09361279
208	0x3daf2025	0.08551053
209	0xbe098c06	-0.13432321
210	0x3dce328a	0.10068233
211	0xbc85c6f4	-0.01633022
212	0xbdf37f68	-0.11889535
213	0xbc5b49da	-0.013384307
214	0x3df5048c	0.11963758
215	0xbd9005de	-0.07032369
216	0xbda82e1c	-0.0821192
217	0x3cd7fb0b	0.026364824
218	0x3a113bc6	0.0005540218
219	0xbd9dbfb3	-0.07702579
220	0x3d3c6cf7	0.046002354
221	0xbe0cd2a0	-0.13752222
222	0x3dbd25e4	0.09235743
223	0x3d825c07	0.06365209
224	0xbe013e21	-0.12621357
225	0xbdad13e7	-0.08451062
226	0x3dcbded0	0.099546075
227	0xbe05e997	-0.13077389
228	0xbdf0b4ef	-0.1175326
229	0xbc78cd9b	-0.015185739
230	0x3da95a00	0.08269119
231	0xbd057114	-0.032578543
232	0xbdbc4c89	-0.091942854
233	0x3df0fb74	0.11766711
234	0xbd56dcd0	-0.052456677
235	0x3dd1a649	0.102367945
236	0xbcfdd2c1	-0.030984284
237	0xbda765ae	-0.08173691
238	0xbb0e9ad5	-0.0021759768
239	0xbdacabb1	-0.08431185
240	0x3ddff533	0.1093544
241	0x3d6f0471	0.058353845
242	0xbd8bf472	-0.068337336
243	0x3d8eea28	0.069782555
244	0x3d0463aa	0.03232161
245	0xbded3899	-0.11583061
246	0xbd91b453	-0.07114472
247	0x39cf6113	0.00039554443
248	0x3a8fe7ad	0.0010979079
249	0x3dc18c6e	0.09450613
250	0xbbbcd52b	-0.0057627163
251	0x3dc5c20c	0.09656152
252	0x3d4bfc40	0.04980111
253	0x3df169ae	0.11787735
254	0xbdff99f3	-0.12480535
255	0x3d7d783a	0.061882235

obs_encoder.0.bias f4 [128]
0	0x3d12daf9	0.03585336
1	0x3e03265c	0.12807602
2	0x3d9edaeb	0.07756599
3	0xbd6dfcf3	-0.05810256
4	0xbdfe93ae	-0.124305114
5	0xbdbe498e	-0.09291373
6	0x3d903f2b	0.07043298
7	0x3cc4a51c	0.024004512
8	0xbdfb2a24	-0.12263897
9	0x3dd1cdd5	0.102443375
10	0xbd7e8c15	-0.06214531
11	0xbdbb7df2	-0.091548815
12	0x3d940112	0.07226767
13	0x3df2f13a	0.118624166
14	0x3ca97565	0.02068586
15	0x3dd40cda	0.10354014
16	0x3daae2d5	0.08344046
17	0x3dffb22b	0.12485155
18	0x3cf75372	0.030191157
19	0xbdd774ee	-0.105203494
20	0x3d868a53	0.06569352
21	0x3d94ba5b	0.07262107
22	0x3de681d6	0.11255233
23	0x3c7a4374	0.015274871
24	0x3d04d749	0.032431874
25	0xbdad7c24	-0.084709436
26	0x3dbbbd98	0.091670215
27	0x3daaf6d7	0.08347862
28	0x3e037dc4	0.12840945
29	0x3dcd5ba2	0.10027243
30	0x3e07ec1e	0.13273665
31	0xbdff15a9	-0.12455303
32	0xbcdafa77	-0.02673076
33	0x3d9d8825	0.07691983
34	0xbe01eb25	-0.12687357
35	0x3d926797	0.071486644
36	0xbd5cca49	-0.05390385
37	0x3d9b98aa	0.07597478
38	0x3db9292a	0.090410545
39	0x3d514b80	0.051097393
40	0xbd2e3c3c	-0.042537913
41	0x3dc9e93a	0.098589376
42	0x3decc068	0.11560136
43	0x3dc28b5f	0.09499239
44	0x3d3de485	0.04636051
45	0x3d82d698	0.06388587
46	0x3dafec8b	0.08590039
47	0x3de9039f	0.11377644
48	0xbd816f14	-0.063200146
49	0x3e0ece7e	0.13945958
50	0xbd611470	-0.05495113
51	0xbd8237c6	-0.06358294
52	0x3df0a61e	0.11750434
53	0xbdc87a1c	-0.097889155
54	0xbbc4f877	-0.0060110646
55	0x3c38ebc7	0.011286682
56	0x3dc5434e	0.09631978
57	0xbbf9edaf	-0.007627211
58	0xbb41731f	-0.002951808
59	0xbcf8854d	-0.030337
60	0xbdd97966	-0.10618858
61	0x3b461fde	0.0030231397
62	0x3d994014	0.07482925
63	0x3d5755af	0.05257195
64	0x3cd66b8e	0.026174333
65	0x3c4f0b1d	0.012636927
66	0xbd846a65	-0.06465606
67	0x3de24e66	0.110501096
68	0x3d0de61a	0.03464327
69	0x3c2adb88	0.010428317
70	0xbdffa58e	-0.12482749
71	0x3ce692af	0.028146116
72	0x3ced6400	0.028978348
73	0x3dabe7b9	0.08393807
74	0xbd58b4eb	-0.05290691
75	0x3da1a259	0.078922935
76	0x3dba5329	0.09097893
77	0xbdf4c890	-0.11952317
78	0xbc3ab8f1	-0.0113966325
79	0xbd95192b	-0.07280191
80	0xbd0ccec4	-0.034376875
81	0x3e0159d2	0.1263192
82	0x3ce1d9e6	0.027569722
83	0xbdb43e76	-0.08800976
84	0x3d165690	0.036703646
85	0x3db65b16	0.08904092
86	0xbdd868cc	-0.105668634
87	0x3ce98b44	0.02850879
88	0xbc3d89f8	-0.011568539
89	0x3de9b6a8	0.11411792
90	0x3dfa5cec	0.12224755
91	0x3da1b251	0.07895339
92	0xbe010cef	-0.1260259
93	0xbdf76f4f	-0.12081777
94	0xbda43cef	-0.08019435
95	0xbd858462	-0.06519391
96	0xbdd834b9	-0.10556931
97	0xbc6848c7	-0.014177508
98	0xbd9b4236	-0.07580988
99	0xbd3cea53	-0.046121906
100	0xbd84d343	-0.064856075
101	0xbd6cbaa6	-0.05779519
102	0xbdbd8e3d	-0.092556454
103	0x3d822ec3	0.06356575
104	0x3d9e1ec7	0.07720714
105	0xbc2f4e8f	-0.010699882
106	0x3db88003	0.09008791
107	0xbcc76cfc	-0.02434396
108	0x3dc1c993	0.09462275
109	0xbdc742d1	-0.09729541
110	0x3d9798d1	0.07402194
111	0xbd631708	-0.055441886
112	0xbd970c1a	-0.07375355
113	0xbd471c2e	-0.04861086
114	0x3dd1220d	0.10211573
115	0xbc258c66	-0.010104274
116	0x3de0455f	0.109507315
117	0xbd437908	-0.047722846
118	0x3d1c9c9c	0.03823529
119	0xbdde2495	-0.10846821
120	0x3e0ad9b6	0.13559613
121	0xbdc181c5	-0.0944858
122	0xbdc19436	-0.09452097
123	0x3d6f6569	0.05844632
124	0xbcc3425d	-0.023835355
125	0x3dd736da	0.10508509
126	0xbd36c2db	-0.044619422
127	0xbb222954	-0.0024743872

obs_encoder.2.weight f4 [128, 128]
0	0xbd441ae7	-0.04787722
1	0x3c90683c	0.017627828
2	0xbd88cab7	-0.0667929
3	0xbdb91914	-0.090379864
4	0xbd7718dc	-0.060326442
5	0x3da9e887	0.08296304
6	0xbc82d1f0	-0.015969247
7	0xbd3160f4	-0.043305352
8	0x3d8b7eda	0.068113044
9	0xbd9a826c	-0.07544407
10	0xbd3f71c0	-0.04673934
11	0x3d8e786f	0.06956565
12	0xbdaf0467	-0.085457616
13	0xbbb9e904	-0.0056735296
14	0x3d3a045f	0.045414325
15	0xbc813b83	-0.015775448
16	0xbace8d84	-0.0015758728
17	0x3d95d2c5	0.07315592
18	0xbc5c476a	-0.013444761
19	0x3d564fd6	0.05232223
20	0xbb90f765	-0.004424023
21	0xbd4d1ee5	-0.05007829
22	0x3b35a591	0.0027717093
23	0x3abdcc86	0.0014480508
24	0xbd10bf46	-0.035338663
25	0xbdc3106c	-0.095246166
26	0x3d8ef92f	0.06981122
27	0x3d8624f2	0.065500155
28	0xbd21023d	-0.039308775
29	0xbd9fe6f8	-0.07807726
30	0x3db3c67e	0.08778094
31	0xbd93b61f	-0.07212471
32	0xbd7dc58c	-0.061955974
33	0xbd29e893	-0.041481566
34	0xbd2446e1	-0.040106658
35	0xbcaabdf7	-0.020842535
36	0x3d307529	0.043080483
37	0x3daba770	0.083815455
38	0x3bc6bb0e	0.006064779
39	0xbd705c37	-0.058681693
40	0x3d461046	0.048355363
41	0x3d241f64	0.040069
42	0xbd321472	-0.04347653
43	0x3d5560b7	0.052094188
44	0xbd7f3a76	-0.062311612
45	0x3c2162b9	0.0098501975
46	0x3db135e7	0.08652859
47	0xbc1d7c0f	-0.009612097
48	0x3db8bffb	0.09020992
49	0x3d654e9f	0.055983182
50	0xbd123281	-0.035692696
51	0xbd9f53bf	-0.07779645
52	0xbd98de2a	-0.074642494
53	0x3ca4c145	0.02011169
54	0xbd8f73a7	-0.07004481
55	0xbd17c6d1	-0.03705484
56	0x3cdc8cc4	0.026922591
57	0x3d04f22a	0.03245751
58	0x3d001f8f	0.031280097
59	0x3d131cb4	0.035916045
60	0xbc7c0342	-0.015381636
61	0xbcd93652	-0.02651516
62	0x3cade863	0.021228975
63	0xbcc48852	-0.023990784
64	0x3b30222c	0.0026875837
65	0xbc062265	-0.008186911
66	0x3d4839ba	0.048883177
67	0xbd34d0fc	-0.044144616
68	0xbc6bc28e	-0.014389647
69	0x3d2fb939	0.04290125
70	0xbce6c8c6	-0.028171908
71	0x3d1be774	0.038062528
72	0x3d9806fc	0.07423207
73	0x3ca5c24e	0.020234253
74	0x3d871165	0.065951146
75	0x3d86165a	0.06547232
76	0xbccd8fbe	-0.025092956
77	0xbdb632b1	-0.08896387
78	0x3cb6669d	0.022265727
79	0x3d5b67ee	0.053565912
80	0x3d8f90d7	0.07010048
81	0x3d166e9b	0.036726575
82	0xbda86b25	-0.08223561
83	0x3d7a604b	0.06112699
84	0xbc01c367	-0.007920123
85	0xbc7d6971	-0.015467034
86	0x3d25fc64	0.0405239
87	0x3d7d4488	0.061832935
88	0xbb343723	-0.0027498684
89	0x3d2cff70	0.04223579
90	0xbbb30286	-0.0054629473
91	0xbcc7e8c5	-0.024402985
92	0x3d0d44c6	0.034489416
93	0x3c527300	0.012844801
94	0x3d9a77d5	0.075423874
95	0x3dcd3954	0.100207
96	0x3d811f39	0.063047834
97	0x3b9b1ddf	0.0047337855
98	0x3d005241	0.031328443
99	0x3da7b130	0.08188093
100	0xbd82ba64	-0.063832074
101	0x3d6fa4f0	0.058506906
102	0xbcfd0e07	-0.030890478
103	0x3aef2902	0.0018246474
104	0x3d93939f	0.07205891
105	0x3d5ef647	0.054434087
106	0x3d6c0170	0.05761856
107	0x3d3f93f2	0.04677195
108	0xbc9814f1	-0.018564673
109	0xbd8e30ef	-0.06942927
110	0x3d3f1a12	0.046655722
111	0x3d6c0f98	0.05763206
112	0xbb0ca726	-0.0021461933
113	0x3d464789	0.048408065
114	0xbcb5699a	-0.022145081
115	0xbd886892	-0.0666057
116	0xbda92441	-0.08258868
117	0xbda29339	-0.07938237
118	0xbd128578	-0.035771817
119	0x3c9f47e6	0.019443464
120	0x3cb95951	0.022625597
121	0xbdabcb0f	-0.0838834
122	0x3daa2906	0.08308606
123	0x3d274a25	0.040842194
124	0x3dac176e	0.08402906
125	0x3d5a68e8	0.053322703
126	0x3ca03614	0.019557036
127	0x3db07c35	0.086174406
128	0xbd7b17a8	-0.061301857
129	0xbc55959a	-0.013036156
130	0xbdc313ed	-0.09525285
131	0x3dacc533	0.0843605
132	0x3cb0440b	0.02151682
133	0xbcf8ebbd	-0.030385846
134	0x3ccf5085	0.02530695
135	0xbd55811c	-0.05212508
136	0xbd132b3f	-0.035929915
137	0xbc63e433	-0.013909387
138	0x3c7e84ed	0.015534622
139	0xbd80e1aa	-0.06293042
140	0x3d33b363	0.04387225
141	0x3d83bd85	0.06432632
142	0x3cc33b5a	0.023832012
143	0x3d8312c1	0.064000614
144	0xbda22ff3	-0.07919302
145	0xbd2729e5	-0.040811438
146	0x3d36bebf	0.044615503
147	0xbd867450	-0.065651536
148	0x3d8d9cbb	0.069146596
149	0x3d23bab5	0.03997298
150	0xbd5b63d1	-0.05356199
151	0xbd913d8b	-0.070918165
152	0xbc0eae7d	-0.008708593
153	0xbca03a32	-0.019559
154	0xbd2d7d85	-0.042356033
155	0x3d6da947	0.058022764
156	0xbd65d1e8	-0.056108385
157	0x3da0a171	0.078432925
158	0x3ccd1768	0.025035575
159	0xbcdb9c1d	-0.026807839
160	0xbd1a227e	-0.03763055
161	0xbcb1898b	-0.02167203
162	0xbd928129	-0.071535416
163	0xbd3b5880	-0.045738697
164	0xbd07fe0e	-0.03320127
165	0x3d3f989c	0.0467764
166	0x3d786c2d	0.06065004
167	0xbb91d66a	-0.004450609
168	0xbd633c0f	-0.0554772
169	0x3cde08fd	0.027103895
170	0xbdabe765	-0.083937444
171	0xbcb45a60	-0.02201575
172	0xbc2b4da6	-0.010455525
173	0xbda1745a	-0.078835204
174	0x3d510b8f	0.051036414
175	0x3a703370	0.0009162938
176	0x3dc553b3	0.09635105
177	0x3d3a2190	0.045442164
178	0xbb8a3794	-0.004218051
179	0xbdbef531	-0.0932411
180	0x3da960e7	0.08270436
181	0xbd396dbd	-0.04527067
182	0x3d8befcc	0.06832847
183	0x3d9ac831	0.07557715
184	0xbcc8df79	-0.024520623
185	0x3d386703	0.045020115
186	0xbd8d3567	-0.06894951
187	0x3d3649c9	0.04450396
188	0xbb10efac	-0.0022115512
189	0x3d83dd85	0.06438736
190	0xbd7d4baa	-0.061839737
191	0xbd69d674	-0.057089284
192	0xbc0a33a9	-0.008435168
193	0x3d1eb8ec	0.038750574
194	0x3d40c55a	0.04706321
195	0x3da103e1	0.07862068
196	0xbdcc667c	-0.09980485
197	0x3da8cab5	0.08241788
198	0x3da34e02	0.07973863
199	0xbd310e52	-0.043226548
200	0x3da22dbf	0.079188816
201	0x3d5585d6	0.05212959
202	0x3c8234ab	0.015894255
203	0xbdb18832	-0.08668555
204	0xbd4cdbc3	-0.05001427
205	0x3d5051f8	0.05085942
206	0xbd526b71	-0.051371995
207	0xbc58abc0	-0.013224542
208	0x3d7317b2	0.05934877
209	0xbd135c35	-0.035976607
210	0x3d384d35	0.044995505
211	0x3d320ea6	0.043471
212	0x3d4a4d70	0.049390256
213	0x3c9d5a7c	0.019208185
214	0x3d1f7c8f	0.038937148
215	0x3d9ea981	0.07747174
216	0x3cf95227	0.030434681
217	0xbd065f9e	-0.03280603
218	0xbd942b0b	-0.07234772
219	0xbd8c8815	-0.06861893
220	0x3b667445	0.0035164517
221	0xbc4a7946	-0.012358015
222	0x3d9126c1	0.0708747
223	0x3cd9d0a0	0.026588738
224	0x3d3bcbbd	0.045848597
225	0xbd90c54f	-0.07068884
226	0x3b722136	0.0036946065
227	0xbd8b0538	-0.06788105
228	0xbd73d5e6	-0.05953016
229	0x3d5a0ebe	0.053236715
230	0x3bb05b97	0.005382012
231	0xbcf83910	-0.030300647
232	0xbbb4b76f	-0.005515031
233	0xbda82540	-0.0821023
234	0xbc9d8711	-0.019229444
235	0x3b6e5b75	0.003637043
236	0x3da2c8bc	0.07948443
237	0x3d45bcae	0.048275642
238	0xbd22ee98	-0.039778322
239	0xbd537f2f	-0.051634964
240	0x3db67054	0.08908144
241	0xbd8750ff	-0.06607246
242	0xbc9c44ed	-0.019075835
243	0xbd81e6b6	-0.06342833
244	0x3cbcce4d	0.02304759
245	0xbd964725	-0.073377885
246	0xbc817b6f	-0.015805928
247	0x3d5f5604	0.05452539
248	0x3da4383f	0.080185406
249	0x3d594da7	0.05305257
250	0xbdb06178	-0.08612341
251	0xbdab56fa	-0.08366199
252	0xbd887396	-0.06662671
253	0x3cd7bef5	0.026336173
254	0xbd9e9d23	-0.07744815
255	0x3cb6b471	0.022302838

obs_encoder.2.bias f4 [128]
0	0x3da223b0	0.07916963
1	0x3db4b2b7	0.0882315
2	0xbc041d68	-0.008063652
3	0xbc721a8b	-0.014776836
4	0xbcb6aa60	-0.022298038
5	0xbd93edaf	-0.07223069
6	0xbd959ffb	-0.073059045
7	0xbd9a5ef7	-0.07537644
8	0x3d02dd84	0.031949535
9	0xbd0665b6	-0.032811843
10	0xbdb1bf23	-0.086790346
11	0x3d7bd2c8	0.061480314
12	0x3d98ec5a	0.074669555
13	0x3d90fb9a	0.07079239
14	0x3c766c49	0.015040466
15	0xbb9a65eb	-0.0047118566
16	0xbd6767db	-0.05649553
17	0x3c10d55c	0.008839931
18	0xbcad10b9	-0.021126138
19	0xbcd68340	-0.026185632
20	0xbc813cae	-0.015776005
21	0x3dab5f35	0.08367769
22	0x3dbd0a69	0.09230501
23	0x3c6c3006	0.014415747
24	0x3d95fb9a	0.0732338
25	0xbd357eb9	-0.044310305
26	0x3d3b8112	0.045777388
27	0xbd44d956	-0.04805883
28	0xbd17bbfd	-0.037044514
29	0x3c92771d	0.017879063
30	0x3cedd8de	0.029034074
31	0x3c9ea374	0.01936505
32	0xbda91492	-0.082558766
33	0xbb9b4bfe	-0.0047392836
34	0x3d862298	0.06549567
35	0xbd9f819a	-0.077883914
36	0xbd28aa77	-0.041178193
37	0xbce93907	-0.028469576
38	0x3cf35a03	0.029706007
39	0xbcbdf29f	-0.02318698
40	0x3b36a13c	0.00278671
41	0x3d8f983c	0.07011458
42	0x3db0a462	0.086251035
43	0xbd7a9ddf	-0.061185714
44	0x3d65d886	0.056114696
45	0xbd0d3358	-0.034472793
46	0xbda27e40	-0.079342365
47	0xbc709aa3	-0.014685306
48	0xbc89816a	-0.016785342
49	0x3b54967c	0.0032438328
50	0x3d4edae0	0.050501704
51	0xbd16a70a	-0.036780395
52	0xbd97a54c	-0.07404575
53	0x3d64dd9e	0.055875413
54	0x3d764b57	0.060130443
55	0x3d0fb055	0.035080273
56	0xbd8c0731	-0.06837309
57	0x3d4473f9	0.047962163
58	0x3d0a5b59	0.033778522
59	0xbd81ecc1	-0.06343985
60	0xbd88fa26	-0.06688337
61	0x3d60323f	0.05473542
62	0x3d5223fa	0.05130384
63	0x39926410	0.00027921842
64	0x3d0064ae	0.031346016
65	0xbb69a52b	-0.0035651426
66	0xbd999da4	-0.07500771
67	0xbd074e60	-0.03303373
68	0xbd88ecba	-0.06685777
69	0xbd51157c	-0.05104588
70	0x3db1170a	0.086469725
71	0x3d1a0562	0.03760279
72	0xbd8425ac	-0.06452498
73	0xbd8320fb	-0.06402775
74	0x3bfbdd42	0.007686288
75	0x3d834bbc	0.064109296
76	0xbc0fbae1	-0.008772583
77	0x3db56222	0.08856608
78	0x3cb3b530	0.021936983
79	0x3d33456a	0.04376737
80	0x3db6889f	0.08912777
81	0xbd92a7dd	-0.07160924
82	0x3ca627c3	0.020282632
83	0xbd416a04	-0.047220245
84	0xbcd2f611	-0.0257521
85	0xbae5f17a	-0.0017543279
86	0x3d49db3c	0.049281344
87	0xbd7e5724	-0.062094823
88	0xbd634a82	-0.055490978
89	0xbd45bbce	-0.048274808
90	0xbcd00da7	-0.025397135
91	0x3dbde192	0.0927154
92	0xbda41176	-0.08011143
93	0x3d961c82	0.07329656
94	0x3d3e47e1	0.046455268
95	0xbd4d8c84	-0.050182834
96	0x3b9ef468	0.004850913
97	0xbcac65c2	-0.021044616
98	0x3cdf8dae	0.027289238
99	0x3d06a204	0.032869354
100	0xbc12c71f	-0.008958607
101	0xbd161980	-0.036645412
102	0x3d03583e	0.032066576
103	0x3d8c1f80	0.06841946
104	0xbd48f53a	-0.04906199
105	0x3d6cdf5b	0.057830196
106	0x3d1c81ed	0.038209844
107	0xbd47ba89	-0.04876188
108	0x3d1c999d	0.038232435
109	0x3d5ddd12	0.054165907
110	0x3d616e02	0.055036552
111	0xbccdceb3	-0.025122976
112	0x3daddff4	0.08489981
113	0xbca3b8c9	-0.019985573
114	0x3cce0c7a	0.025152434
115	0x3d689144	0.05677916
116	0xbb102ee3	-0.0022000603
117	0x3d277c9a	0.040890314
118	0x3d34ffd2	0.04418928
119	0xbd79000f	-0.06079107
120	0xbccb7e78	-0.024840578
121	0xbd1a2379	-0.037631486
122	0x3d162d57	0.036664333
123	0xbd2720c0	-0.040802717
124	0xbcdb9b56	-0.026807468
125	0x3be84713	0.007088551
126	0xbce82226	-0.028336596
127	0x3a81b80d	0.000989677

text_proj.0.weight f4 [64, 384]
0	0x3cc2378a	0.023708124
1	0x3cce3004	0.02516938
2	0xbd307cb5	-0.04308768
3	0xbce0c9e6	-0.027440023
4	0xbd17bc52	-0.03704483
5	0xbd0e809a	-0.034790613
6	0x3b94e2c7	0.0045436355
7	0x3c0549c7	0.008135266
8	0x3d54759d	0.051869977
9	0x3c5db226	0.013531243
10	0xbd4ffcb8	-0.05077812
11	0x3b2d74e3	0.0026467375
12	0x3d0329de	0.03202235
13	0xbc5fa18a	-0.013649354
14	0x3b370cf7	0.0027931312
15	0xbcd0d5fe	-0.025492664
16	0x3ccf9b68	0.025342658
17	0x3d119101	0.035538677
18	0x3ce712d8	0.028207228
19	0xbc650ced	-0.0139801325
20	0x3d5d9ed0	0.054106534
21	0xbd28f33c	-0.04124759
22	0xbbc8d7e3	-0.0061292513
23	0xbb806e0e	-0.0039193695
24	0xba5462a0	-0.00081018545
25	0xbd08b985	-0.03338005
26	0x3d48c46e	0.049015455
27	0x3d23eb2a	0.04001919
28	0xbc3cdf2a	-0.011527816
29	0xbd3a43a2	-0.045474656
30	0xbc802564	-0.01564283
31	0x3d4925d3	0.049108338
32	0x3d307074	0.043075994
33	0xbcd80cbd	-0.026373262
34	0xbc34e0ec	-0.011039954
35	0x3d0a4f33	0.033766937
36	0x3d3762f3	0.0447721
37	0xbcf4c93b	-0.02988111
38	0x3c98a0e6	0.01863141
39	0x3baf7119	0.0053540585
40	0x3cb19e51	0.021681936
41	0xbb760a45	-0.0037542742
42	0xbcfc25fb	-0.03077983
43	0xbd63a5b3	-0.055577945
44	0xba9c3bf9	-0.0011919729
45	0xbc846c00	-0.01616478
46	0xbd19901a	-0.03749094
47	0xbc8c2acb	-0.017110249
48	0x3c10fb0b	0.008848916
49	0x3d450802	0.04810334
50	0xbcc5573b	-0.024089446
51	0x3bd38dfa	0.006456134
52	0x3ba0c254	0.004905978
53	0x3d555af7	0.052088704
54	0x3c81cb47	0.015844
55	0x3c2eca2a	0.010668317
56	0xbcc3b4aa	-0.023889858
57	0x3cba5c77	0.022749169
58	0x3c48ff06	0.012267834
59	0x3c6fc293	0.014633792
60	0x3c48a4ee	0.012246354
61	0xbc81e09f	-0.015854178
62	0xbcb127a2	-0.021625344
63	0xbd1e1861	-0.03859747
64	0xbcd20feb	-0.025642356
65	0x3d44a6f9	0.0480108
66	0xbd4f761a	-0.05064974
67	0xbc53f097	-0.012935779
68	0xbd21802c	-0.039428875
69	0x3d495cc3	0.04916073
70	0xbd30c439	-0.043155883
71	0x3c9f252d	0.019426906
72	0xbc6ba9ab	-0.014383714
73	0x3d4d26f2	0.05008597
74	0x3cdbcb90	0.026830465
75	0xbd322793	-0.043494772
76	0x3c8cd6bd	0.017192239
77	0x3cfa9fda	0.030593801
78	0x3cd3e82f	0.02586755
79	0x3d048577	0.032353844
80	0xbd005699	-0.031332586
81	0x3bd4f466	0.006498861
82	0x3d12f929	0.03588215
83	0xbd3ecaa9	-0.04657999
84	0xbc58920c	-0.013218414
85	0xbad3f3f9	-0.0016170732
86	0x3c992088	0.01869227
87	0x3a7477a3	0.00093256886
88	0x3c0530bd	0.008129296
89	0x3bdca273	0.0067332326
90	0xbd36f139	-0.04466364
91	0xbd07b031	-0.033127014
92	0xbc13bc6c	-0.009017091
93	0xbbbb163c	-0.0057094377
94	0xbd1fe416	-0.03903588
95	0xbd1445e8	-0.03619948
96	0xbc425feb	-0.011863689
97	0x3d0b1d22	0.03396333
98	0x3c1f3242	0.009716572
99	0xbcb88ca7	-0.022528006
100	0x3ce68d33	0.0281435
101	0x3d1d41c9	0.038392816
102	0xbcec0b4b	-0.028813979
103	0xbd167b64	-0.03673877
104	0x3c165d1f	0.009177475
105	0x3c258053	0.010101396
106	0x3cb8c294	0.02255372
107	0x3d420464	0.04736747
108	0x3bf776f9	0.0075520244
109	0xbbe2116f	-0.006899051
110	0xbcff1cfb	-0.031141749
111	0xbd736c6d	-0.059429575
112	0xbbc5839e	-0.006027653
113	0x3d28bf3d	0.041198004
114	0x3ca24505	0.019808302
115	0xbba7701a	-0.005109799
116	0x3b26ea6b	0.0025469314
117	0x3d089e49	0.033354077
118	0xbc66248c	-0.014046799
119	0x3d223b13	0.03960712
120	0x3c582d0a	0.013194332
121	0x3d3173c7	0.043323305
122	0xbd1afd73	-0.037839364
123	0xbd495337	-0.049151625
124	0x3ccca197	0.024979396
125	0x3cc5e0ab	0.024154982
126	0x3cfd27e9	0.03090282
127	0xbc1b2907	-0.009470231
128	0x3d1092f8	0.03529641
129	0xbd58e4a2	-0.052952416
130	0x3c69792d	0.014250082
131	0x3d29921c	0.041399106
132	0x3d094bde	0.03351962
133	0x3cd9b5e9	0.026576
134	0xbd12e7b7	-0.03586551
135	0x3ca197df	0.019725738
136	0x3b7447fc	0.0037274351
137	0xbd293afb	-0.041316014
138	0x3d29acce	0.041424565
139	0x3d1d55f0	0.038412035
140	0x3d1a8472	0.037723966
141	0x3b944c00	0.0045256615
142	0xb8c31f53	-9.304159e-05
143	0xbd785e1c	-0.060636625
144	0xbd2fd0da	-0.042923786
145	0xbca12838	-0.019672498
146	0xbd47deb3	-0.048796367
147	0xbd388e9f	-0.04505789
148	0x3d528ef0	0.051405847
149	0xbd2f1353	-0.04274304
150	0xbcf8bdd6	-0.030363958
151	0x3d14f647	0.03636768
152	0xbcd5ecc7	-0.02611388
153	0x3d37f5be	0.044912092
154	0x3d429509	0.047505412
155	0x3d260c30	0.040538967
156	0x3be31102	0.0069295177
157	0xbd4623bd	-0.048373926
158	0xbcb42d18	-0.021994159
159	0x3cac5365	0.02103586
160	0x3cee529e	0.02909213
161	0x3cfdd288	0.030984178
162	0x3cae050a	0.021242637
163	0x3d13d6f6	0.036093675
164	0x3b187f7a	0.0023269341
165	0xbc51d4da	-0.012807095
166	0x3c86c16a	0.016449649
167	0xbc99a62a	-0.018755991
168	0x3cdff16d	0.0273368
169	0xbd1bdc2e	-0.038051777
170	0x3d46400c	0.048400924
171	0xbd5cdfe3	-0.053924453
172	0xbb9e0b88	-0.004823152
173	0xbd5e082c	-0.054207012
174	0x3b9bd4aa	0.004755576
175	0xbcf869ff	-0.03032398
176	0x3d03a9b7	0.032144275
177	0xbbd7b7c7	-0.0065831873
178	0x3c59a73c	0.013284501
179	0xbc706c26	-0.014674222
180	0xbc36286f	-0.011118039
181	0xbd35b54c	-0.04436235
182	0x3ccd0b53	0.025029814
183	0xbcc9541a	-0.024576236
184	0x3ae14833	0.0017187655
185	0x3cdf38a2	0.027248684
186	0xbcce143c	-0.025156133
187	0xbc238e1a	-0.00998261
188	0xbc851bf3	-0.016248679
189	0x3cf69d72	0.030104373
190	0xbd0fbbb8	-0.035091132
191	0x3b4ee54e	0.0031569782
192	0x3d266aae	0.04062908
193	0xbcd89d0a	-0.02644207
194	0x3bb06864	0.005383538
195	0x3c02aa40	0.007975161
196	0x3d642a1f	0.055704232
197	0x3cb96c2a	0.022634584
198	0x3d36d59d	0.04463731
199	0x3bb0b60b	0.005392795
200	0xbcf0e46f	-0.0294058
201	0xbc63720e	-0.013882173
202	0xbc18e4ae	-0.009331865
203	0x3d5f075d	0.05445038
204	0xbce40196	-0.027832787
205	0x3c9a9085	0.01886774
206	0xbc40706f	-0.011745556
207	0xbd335063	-0.043777835
208	0xbcaa8e92	-0.020819936
209	0xbca7776c	-0.020442687
210	0x3d119052	0.035538025
211	0x3c06ccff	0.008227586
212	0x3d192594	0.037389353
213	0xbd59cc14	-0.05317314
214	0xbcd5f9aa	-0.026120026
215	0xbc3898b5	-0.011266877
216	0xbd74b686	-0.05974438
217	0x3c4910fa	0.012272114
218	0x3d2220da	0.03958211
219	0x3beac056	0.0071640415
220	0x3d366be4	0.044536486
221	0x3c40fcb9	0.011779004
222	0xbd020606	-0.031744026
223	0xbc041d00	-0.008063555
224	0x3d1fafb7	0.038985934
225	0xbc339cd2	-0.010962682
226	0x3ab1a8d5	0.0013554344
227	0x3d0179cc	0.031610295
228	0x3d4861cf	0.048921403
229	0x3cfb2bfd	0.030660624
230	0x3cb1a80b	0.021686574
231	0x3b8bf720	0.004271403
232	0x3b673fc6	0.0035285815
233	0x3c86fac5	0.016476998
234	0xbbf5742f	-0.007490657
235	0x3a8d6690	0.0010788012
236	0x3d03709f	0.032089826
237	0x3d36f505	0.044667263
238	0x3b9347e0	0.004494652
239	0x3d794dd5	0.060865242
240	0x3cec77e1	0.028865756
241	0xbd5883f1	-0.052860204
242	0x3a3eb24b	0.00072744925
243	0xbc85afa7	-0.01631911
244	0x3d7ebb8e	0.062190585
245	0xbd0e5bc2	-0.034755476
246	0x3d0d23d4	0.034457996
247	0xbca221ca	-0.019791503
248	0xbc09907c	-0.008396264
249	0xb98c643a	-0.00026777555
250	0x3d073738	0.033011645
251	0xbd6b6e0e	-0.057478003
252	0xbd0fc398	-0.035098642
253	0xbca15296	-0.0196927
254	0xbd21419e	-0.039369218
255	0xbd0b1ff2	-0.033966012

text_proj.0.bias f4 [64]
0	0x3d420eb0	0.04737729
1	0xbca9280f	-0.020648984
2	0x3baa10d7	0.0051899957
3	0xbd347f58	-0.044066757
4	0x3d1b4b34	0.037913516
5	0xbd495d3f	-0.049161192
6	0xbc918e69	-0.017768102
7	0xbcdbad76	-0.026816111
8	0x3c949121	0.01813561
9	0xbc4ef8d5	-0.012632568
10	0x3d222f35	0.0395958
11	0xbd0a67a7	-0.033790257
12	0x3c80a291	0.015702518
13	0x3d6de79c	0.058082208
14	0x39a11a88	0.0003072808
15	0x3cbd55fb	0.023112288
16	0xbd2d4d40	-0.04231
17	0xbca5113b	-0.020149818
18	0xbc623006	-0.013805395
19	0x3c4277c6	0.0118693765
20	0xbd5ed4c8	-0.054402143
21	0x3d32072e	0.04346388
22	0x3cb3952f	0.021921722
23	0xbcc84b68	-0.024450019
24	0xbcae7eb7	-0.021300657
25	0xbd22cde6	-0.03974714
26	0xbca1f3d6	-0.01976959
27	0x3c1a93e4	0.009434674
28	0xbc42356c	-0.011853557
29	0x3c5c0851	0.013429717
30	0xbd4a5ac4	-0.049402967
31	0xbd01ba43	-0.031671774
32	0xbd2b7360	-0.041858077
33	0xbbc7a447	-0.0060925814
34	0xbc8cfecc	-0.01721134
35	0x3ac12aac	0.0014737449
36	0xba858d63	-0.0010189231
37	0x3c9f6ffd	0.01946258
38	0x3cef9c9d	0.029249484
39	0xbd004999	-0.03132019
40	0x3b77a6fc	0.003778874
41	0x3d50a9aa	0.050943054
42	0xbbf283a2	-0.0074009458
43	0xbcf8dbbf	-0.03037822
44	0xbc88affa	-0.016685475
45	0xbd546961	-0.05185831
46	0xbd370a2e	-0.044687442
47	0x3c59832f	0.0132759055
48	0x3d73733b	0.059436064
49	0xbd2408dd	-0.040047515
50	0xbbe0de6c	-0.0068624523
51	0xbd50212f	-0.050812896
52	0x3cd75021	0.026283326
53	0x3cfbebd6	0.030752104
54	0x3c593604	0.013257507
55	0xbd1c19e4	-0.03811063
56	0x3d1ad0f4	0.03779693
57	0xbcff0f3f	-0.0311352
58	0x3ced9614	0.029002227
59	0xbce738ce	-0.028225329
60	0x3cd74697	0.026278777
61	0x3ca202f8	0.019776806
62	0xbd2ba094	-0.041901186
63	0xbd5612aa	-0.052263893

fusion.0.weight f4 [128, 192]
0	0x3d22f45c	0.03978382
1	0xbcaf2d64	-0.021383949
2	0x3b886761	0.0041627144
3	0x3c719f94	0.014747519
4	0xbbdc9f74	-0.0067328755
5	0xbd15b536	-0.03654977
6	0x3d37e5f8	0.04489705
7	0x3ce7680c	0.028247856
8	0x3d57d570	0.052693784
9	0xbd8204f8	-0.06348604
10	0x3cbf036c	0.023317061
11	0x3d7a7a41	0.061151747
12	0x3c61a0a5	0.013771211
13	0xbd7a605b	-0.061127048
14	0x3cf20b71	0.029546471
15	0x3c201a35	0.009771873
16	0x3c46892e	0.012117667
17	0xbcac529b	-0.021035483
18	0x3d22fa4b	0.03978948
19	0xbd8be1e7	-0.06830197
20	0xbcff0e8e	-0.03113487
21	0xbccddce4	-0.025129743
22	0x3d357779	0.04430339
23	0x3c44b000	0.012004852
24	0xbd73bed6	-0.059508167
25	0xbca92190	-0.020645887
26	0xbc9eb8c4	-0.019375212
27	0xbd7b6b42	-0.061381586
28	0x3d73cafd	0.059519757
29	0xbd8b2e00	-0.06795883
30	0x3b424a3a	0.0029646293
31	0x3d8c555c	0.068522185
32	0xbc886546	-0.016649853
33	0xbd881d64	-0.06646231
34	0xbd45e79f	-0.048316594
35	0xbbbd00a0	-0.005767897
36	0xbd16bad8	-0.03679928
37	0x3cfacccc	0.030615233
38	0x3d789108	0.060685188
39	0xbd978d2d	-0.07399974
40	0xbce50755	-0.027957598
41	0xbc822905	-0.0158887
42	0x3d282196	0.041047655
43	0x3d5f4955	0.054513294
44	0x3b6d8efe	0.003624856
45	0x3d58ff4e	0.052977853
46	0xbd7d2ec4	-0.061812177
47	0xbc84c0c7	-0.016205205
48	0xbd6136ec	-0.05498402
49	0x3d4d460a	0.050115623
50	0x3d7d5c28	0.061855465
51	0xbd8fb259	-0.07016439
52	0x3cb1fd32	0.021727178
53	0xbd84446c	-0.06458363
54	0xbbf09c7c	-0.007342873
55	0xbc7f1e4e	-0.01557119
56	0x3d8c6c41	0.06856585
57	0xbd5984d9	-0.05310521
58	0x3d8874b1	0.06662882
59	0xbd35fb8c	-0.044429347
60	0x3cd72be8	0.026266053
61	0x3d8a9032	0.06765784
62	0xbd8b1c39	-0.067924924
63	0x3d65cd5b	0.056104045
64	0x3d23b0c4	0.0399635
65	0x3c35fd8a	0.011107812
66	0x3cc05726	0.023479056
67	0x3d3ac9ca	0.045602597
68	0xbd94b38d	-0.07260809
69	0x3ccaa050	0.024734646
70	0xbd5f640e	-0.05453878
71	0x3d57f0f0	0.05272001
72	0x3d3ce7ad	0.04611938
73	0xbc27d1e2	-0.010242911
74	0xbd5f5705	-0.054526348
75	0xbcf0f6de	-0.02941459
76	0xbd25f8fb	-0.04052065
77	0x3d5f345a	0.054493286
78	0x3bdb0c1d	0.0066847936
79	0x3d5136f9	0.051077817
80	0x3ceb15a3	0.02869684
81	0xbd87d20f	-0.06631862
82	0x3bb9cc87	0.0056701335
83	0xbd573ffd	-0.05255126
84	0x3d93831d	0.07202742
85	0xbd97d38d	-0.07413397
86	0x3bc8f285	0.006132426
87	0xbc2b8679	-0.0104690725
88	0xbd2fc573	-0.04291291
89	0x3c5f0763	0.013612601
90	0xbd8a36ea	-0.06748755
91	0x3d68211e	0.056672208
92	0x3b39a25e	0.0028325538
93	0x3d51ac27	0.051189568
94	0xbce4931a	-0.027902175
95	0xbd0ddc8b	-0.034634154
96	0x3d72b89d	0.059258092
97	0x3cf72383	0.0301683
98	0xbcdcf12f	-0.026970474
99	0xbd01ec29	-0.03171936
100	0xbc60ada0	-0.01371327
101	0xbd8580a0	-0.06518674
102	0x3c6c7ee1	0.014434547
103	0x3d67a61a	0.05655489
104	0x3d11b948	0.03557709
105	0xbc839e47	-0.016066683
106	0xbd73c56f	-0.05951446
107	0x3c89b228	0.016808584
108	0x3d963474	0.073342234
109	0xbca418ab	-0.020031294
110	0x3b7cfe87	0.0038603859
111	0xbc0c0d49	-0.008548089
112	0x3ce5e2d8	0.02806227
113	0x3d7d4357	0.0618318
114	0xbc04c0b6	-0.0081025865
115	0xbd805745	-0.06266645
116	0xbb8178cf	-0.003951169
117	0xbd6dd517	-0.058064546
118	0xbca9c46c	-0.020723544
119	0x3bc779ab	0.006087502
120	0xbd48fe3b	-0.049070578
121	0xbceaeb6b	-0.02867671
122	0xbc2a981f	-0.010412245
123	0xbcc16a95	-0.023610393
124	0xbd21e7a7	-0.03952756
125	0x3a98fc61	0.0011671894
126	0xbd4400d6	-0.04785236
127	0xbd5796c4	-0.052634016
128	0x3c6f29fc	0.014597412
129	0x3d8cf1ab	0.06882032
130	0xbc984241	-0.01858628
131	0xbccaf809	-0.024776476
132	0xbceeea20	-0.029164374
133	0x3d299fbb	0.041412096
134	0xbd23a3d2	-0.039951153
135	0x3d05110b	0.032486957
136	0x3cebf669	0.028804021
137	0x3d529e48	0.05142048
138	0xbd188bd2	-0.037242718
139	0x3d320c0b	0.043468516
140	0xbd16485c	-0.0366901
141	0x3a115a28	0.00055447454
142	0x3cacc269	0.021088796
143	0xbcd4748c	-0.02593448
144	0x3d4aab7e	0.049479954
145	0x3c598b7f	0.013277887
146	0xbc5ff557	-0.013669333
147	0x3d4cd0fb	0.050003987
148	0xbd849f4d	-0.06475697
149	0xbd729405	-0.059223194
150	0xbd85b117	-0.06527918
151	0xbd7b072b	-0.061286133
152	0xbcf1b555	-0.029505411
153	0xbcf992f6	-0.030465584
154	0xbd352cf8	-0.04423234
155	0xbd3f885c	-0.0467609
156	0x3c3e9077	0.011631123
157	0xbc7fcab4	-0.015612293
158	0x3d8cadda	0.06869097
159	0x3d771709	0.060324702
160	0x3d2898fb	0.04116152
161	0xbcccd656	-0.025004547
162	0xbd491a01	-0.049097065
163	0x3d40b0c7	0.047043588
164	0xbd6a37a5	-0.057181973
165	0xbd0cd154	-0.03437932
166	0xbcec8019	-0.028869675
167	0xbcc49ebe	-0.024001475
168	0xbd8cbb99	-0.06871719
169	0x3d57bae9	0.052668486
170	0x3d7a7946	0.06115081
171	0x3cd085d9	0.025454449
172	0xbd9e684e	-0.07734738
173	0xbd2ca422	-0.042148717
174	0xbd8aa55c	-0.06769821
175	0x3d238f39	0.03993151
176	0xbceb89ac	-0.02875217
177	0xbd76f009	-0.06028751
178	0xbcbc9ea4	-0.023024864
179	0x3d401c4c	0.046901986
180	0x3d266af7	0.040629353
181	0xbd0ead8f	-0.034833487
182	0x3d53e7f3	0.051734876
183	0xbb0b75fd	-0.0021280043
184	0xbd49d965	-0.04927959
185	0xbd520284	-0.05127193
186	0xbd8dc391	-0.06922067
187	0xbd800395	-0.06250683
188	0xbd0dfd50	-0.034665406
189	0xbd014381	-0.031558517
190	0xbd74869b	-0.059698682
191	0x3d1df1fe	0.03856086
192	0x3c92d525	0.0179239
193	0xbc8442f4	-0.016145207
194	0x3d97a256	0.0740401
195	0x3c93970a	0.018016357
196	0xbb31fcbc	-0.0027158698
197	0xbc80d88b	-0.015728256
198	0xbb9efa37	-0.0048516053
199	0x3cd0a683	0.025470024
200	0x3d8dd4a1	0.06925321
201	0x3c91af40	0.017783761
202	0xbcac4713	-0.021029985
203	0x3c868ff4	0.016426064
204	0x3d466fb1	0.04844636
205	0x3cbe1bc1	0.023206593
206	0x3d2f1059	0.0427402
207	0xbb499e1e	-0.0030764411
208	0xbcb47836	-0.022029977
209	0x3cc87e03	0.02447415
210	0x3b55a0aa	0.0032596984
211	0x3d1e47b1	0.03864259
212	0x3ca44b42	0.020055417
213	0xbd203919	-0.039116953
214	0x3d94a737	0.07258456
215	0x3d2d7339	0.042346213
216	0xbc8c8a4e	-0.017155793
217	0xbd91c587	-0.071177535
218	0x3d8410b9	0.06448502
219	0x3cb299d6	0.02180187
220	0x3cf74949	0.030186312
221	0xbd63ea35	-0.05564328
222	0x3c1a7757	0.009427867
223	0x3cea1bc9	0.028577702
224	0x3d3219cb	0.04348163
225	0xbcede38f	-0.029039172
226	0x3ca752db	0.02042525
227	0xbb185445	-0.0023243588
228	0xbd49fa54	-0.049310997
229	0x3d1f61bd	0.03891157
230	0x3cb368f2	0.021900628
231	0x3d2b872a	0.04187695
232	0x3caa693a	0.020802129
233	0x3d90b51d	0.070657946
234	0x3d09a20e	0.033601813
235	0xbcd004d7	-0.025392933
236	0x3daf73bd	0.08566997
237	0x3cc6229c	0.024186425
238	0xbc842edc	-0.016135626
239	0x3d41e7f0	0.047340333
240	0x3c13fba4	0.009032164
241	0x3d3f48f7	0.046700444
242	0x3cbc8356	0.023011845
243	0x3d1bddc5	0.038053293
244	0x3c3ecb20	0.011645108
245	0x3cda14f4	0.02662132
246	0x3d65abaf	0.056071933
247	0x3d8e605e	0.06951974
248	0xbc9ec89a	-0.019382764
249	0x3da32efc	0.07967946
250	0x3d9b3445	0.07578329
251	0x3cfedf0d	0.031112218
252	0xbd4767bf	-0.048682924
253	0x3d40b55d	0.04704796
254	0xbc486a57	-0.012232385
255	0xbd8d6f9e	-0.06906055

fusion.0.bias f4 [128]
0	0x3d58cd7d	0.052930344
1	0x3d14c0dd	0.03631674
2	0x3cee6ed6	0.029105585
3	0xbcb7f50c	-0.022455715
4	0xbccbe2a8	-0.024888352
5	0xbd136e2f	-0.03599375
6	0x3ca7d068	0.020485118
7	0xbd8e44ae	-0.06946693
8	0xbbe3a701	-0.0069473987
9	0x3d2d0cf9	0.0422487
10	0x3d06f020	0.032943845
11	0x3d5a6433	0.053318214
12	0xbd8af353	-0.06784692
13	0x3ba7fd32	0.005126619
14	0x3d2553cc	0.040363118
15	0xbb6cbda6	-0.0036123781
16	0x3d12fa1b	0.03588305
17	0x3d26970e	0.0406714
18	0x3d05c8ff	0.032662388
19	0x3d2997a0	0.041404366
20	0x3d3f1d35	0.046658713
21	0x3d92c3fd	0.07166288
22	0xbd7e72f4	-0.062121347
23	0x3cb334c3	0.021875745
24	0xbca3149b	-0.019907286
25	0x3c5f1f3c	0.013618287
26	0xbca00e3c	-0.019538037
27	0x3cabf65d	0.020991499
28	0xbd7b834b	-0.061404508
29	0xbd52dc46	-0.0514796
30	0xbb989c7c	-0.0046573263
31	0xbb0669be	-0.0020509805
32	0xbcedb423	-0.02901656
33	0x3cbc082a	0.022953112
34	0x3d054003	0.03253175
35	0x3d786f73	0.06065316
36	0xbcec61f8	-0.028855309
37	0xbcbf196f	-0.023327557
38	0x3d6939ab	0.056939762
39	0xbd81a776	-0.06330769
40	0xbd42a7cd	-0.04752331
41	0x3d2e4c16	0.04255303
42	0x3d84b84c	0.06480464
43	0xbd89788e	-0.06712447
44	0xbbbf739c	-0.005842639
45	0xbcef7e87	-0.029235138
46	0x3d927cd8	0.07152718
47	0x3d0cd40b	0.034381907
48	0x3d94db77	0.07268422
49	0xbc9bbc97	-0.019010825
50	0xbd385bf4	-0.04500957
51	0xbd5b1670	-0.053488195
52	0x3b22386f	0.0024752875
53	0x3d63446e	0.05548518
54	0x3d11969d	0.035544027
55	0xbd0ff948	-0.035149843
56	0xbcc34744	-0.023837693
57	0xbd1955ba	-0.03743527
58	0x3d21d723	0.03951181
59	0xbd931729	-0.07182152
60	0xbcea5de7	-0.02860923
61	0x3d44cc57	0.048046436
62	0x3d2b6a19	0.04184923
63	0xbc71d262	-0.014759632
64	0x3d03a17b	0.03213642
65	0x3cd5618e	0.026047494
66	0xbc1d8399	-0.009613895
67	0xbc9a6b56	-0.01885001
68	0xbd57d026	-0.05268874
69	0xbcbb93c5	-0.02289761
70	0x3ce30159	0.027710604
71	0x3d69adc4	0.05705048
72	0xbcc07b93	-0.023496425
73	0x3d4786ff	0.048712727
74	0xbc3c3531	-0.011487291
75	0xbb498400	-0.0030748844
76	0xbd4d0842	-0.050056703
77	0x3d9d4b50	0.0768038
78	0xbd6844fd	-0.056706417
79	0x3d71e4ff	0.05905628
80	0xbd06d5c9	-0.032918725
81	0xbd954227	-0.07288008
82	0xbd6c8151	-0.057740513
83	0xbd3bcdf0	-0.045850694
84	0xbc965590	-0.018351346
85	0xbc013e67	-0.007888413
86	0xbd314adb	-0.04328428
87	0x39130bbf	0.00014023388
88	0xbd023cc7	-0.031796243
89	0x3c5881a1	0.0132145
90	0xbd793572	-0.060841985
91	0xbd847cc6	-0.06469111
92	0xbcd02c55	-0.025411764
93	0x3b97498d	0.0046169222
94	0xbcbbbc55	-0.022916952
95	0xbcefb113	-0.02925924
96	0x3d61bda4	0.055112496
97	0xbcbec882	-0.023288969
98	0x3bdfaa19	0.006825697
99	0x3d16b1cb	0.03679065
100	0x3d6ed8f3	0.058312368
101	0xbc70d66b	-0.014699559
102	0xbd74def1	-0.059782926
103	0x3d0fed8a	0.035138644
104	0x3d617e05	0.055051822
105	0xbd0351c2	-0.032060392
106	0xbb9b81b4	-0.0047456864
107	0x3cd0d58b	0.02549245
108	0xbd19b987	-0.03753045
109	0xbcb43b67	-0.022000981
110	0x3c3de00f	0.011589064
111	0xbd38aee0	-0.04508865
112	0xbccabb77	-0.024747593
113	0x3cbe1e0c	0.023207687
114	0xbcac976f	-0.021068303
115	0x3d7a83a4	0.0611607
116	0x3d37a679	0.044836495
117	0x3d298470	0.041386068
118	0x3c39e627	0.0113463765
119	0xbd8b7c6c	-0.06810841
120	0x3d202c08	0.03910449
121	0x3d9137a5	0.070906915
122	0x3d392ae0	0.045206904
123	0xbcfed8f9	-0.03110932
124	0xbd9d868b	-0.07691678
125	0xbd0c4bbb	-0.03425191
126	0x3d2ebf2f	0.042662796
127	0x3d3c4401	0.04596329

fusion.2.weight f4 [64, 128]
0	0xbd24ad91	-0.04020459
1	0x3cf9af19	0.030479
2	0x3c004e01	0.007831098
3	0x3d5a7a5c	0.053339347
4	0xbcfe81a7	-0.031067682
5	0xbce648e9	-0.028110938
6	0xbcad95c5	-0.02118958
7	0x3be17ec8	0.0068815686
8	0x3d45fcee	0.048336916
9	0x3ca6c4d0	0.02035752
10	0x3d7c0309	0.061526332
11	0xbc0de09e	-0.00865951
12	0x3d791b9e	0.060817353
13	0xbbabbad0	-0.0052407756
14	0xbcff603f	-0.031173823
15	0x3dad4ac0	0.08461523
16	0x3da1b150	0.07895148
17	0x3d3cfff6	0.04614254
18	0x3da3d309	0.07999236
19	0xbce5d035	-0.028053382
20	0x3d1962ab	0.037447613
21	0xbd9d0cb2	-0.07668437
22	0x3ca1ad00	0.019735813
23	0x3cbe4dcd	0.023230458
24	0x3d9ba9a9	0.076007195
25	0x3d995bb6	0.074881956
26	0x3d614632	0.054998584
27	0xbd30a65d	-0.043127406
28	0x3d401f4e	0.046904854
29	0xbd2b68de	-0.041848056
30	0x3d6c419b	0.057679754
31	0xbd10be8c	-0.03533797
32	0xbba55ab7	-0.0050462144
33	0x3c18246d	0.009286028
34	0xbca361c7	-0.019944085
35	0xbcb6d8a9	-0.022320108
36	0x3dac5ac4	0.0841575
37	0xbd4a306b	-0.04936258
38	0xbd962750	-0.07331717
39	0xbc2dd8ff	-0.010610818
40	0x3d9bfce6	0.07616596
41	0x3d203d05	0.039120693
42	0x3d8210be	0.063508496
43	0x3ce34c70	0.02774641
44	0x3d8775f6	0.06614296
45	0xbd9581a5	-0.07300118
46	0xbd582dc0	-0.052778006
47	0x3d46583b	0.048423987
48	0xbccee3b6	-0.025255065
49	0xbd414c96	-0.04719218
50	0x3ce767a5	0.028247664
51	0xbce87475	-0.028375844
52	0xbd93b8c6	-0.07212977
53	0x3d74fbcf	0.059810456
54	0xbd29e954	-0.041482285
55	0x3d53e124	0.051728383
56	0xbd8bdb56	-0.068289444
57	0xbcff7a29	-0.03118618
58	0x3d189817	0.03725442
59	0xbd26291c	-0.04056655
60	0x3d881bc6	0.06645922
61	0xbd3a3838	-0.04546377
62	0x3d9d1e02	0.07671739
63	0x3d1c5517	0.038167085
64	0xbda0e19a	-0.0785553
65	0xbd0cbf1d	-0.034361947
66	0x3c1673d9	0.009182894
67	0xbbd70165	-0.0065614455
68	0xba592b8a	-0.0008284381
69	0x3d049ae1	0.032374267
70	0x3dafb3e6	0.08579235
71	0x3d91ca05	0.0711861
72	0xbd95547c	-0.07291505
73	0xbd82f501	-0.06394387
74	0x3da60537	0.081064634
75	0x3c34cbe5	0.01103494
76	0xbd3939d1	-0.045221154
77	0x3d8e0dc9	0.06936223
78	0x3d5ef4d7	0.054432716
79	0xbd73cbff	-0.059520718
80	0xbbdf65da	-0.0068175616
81	0xbdb8a1da	-0.09015246
82	0xbd3d72d1	-0.046252076
83	0x3d9e72b8	0.077367246
84	0x3ce6bd70	0.028166503
85	0xbcb4f314	-0.022088565
86	0xbd83a9be	-0.0642886
87	0xbd666a0e	-0.056253485
88	0x3d2d0620	0.04224217
89	0xbd50971b	-0.050925355
90	0x3c48de7c	0.012260076
91	0xbd9d19fc	-0.07670972
92	0xbda1c6a0	-0.07899213
93	0x3d0b4162	0.0339979
94	0xbb89da57	-0.0042069363
95	0x3d140304	0.03613569
96	0x3cde5a9b	0.027142813
97	0x3d330fe5	0.04371633
98	0x3d4ed083	0.05049182
99	0x3d324153	0.04351933
100	0x3d6dbcb1	0.05804128
101	0xbda9aaf7	-0.08284562
102	0x3d87ecef	0.06636988
103	0xbdb7c779	-0.08973593
104	0x3d584e1e	0.052808873
105	0x3d8cc33c	0.068731755
106	0x3d07fe8c	0.03320174
107	0xbc2ba613	-0.010476607
108	0x3b88b876	0.00417238
109	0x3d65db05	0.056117076
110	0xbc899b3d	-0.016797656
111	0x3d728fb2	0.05921907
112	0x3c885ff4	0.016647317
113	0x3d59ae9c	0.053145036
114	0xbda3ade2	-0.0799215
115	0xbd88bef2	-0.06677045
116	0xbc52b837	-0.012861303
117	0xbd70a323	-0.05874933
118	0xbd0fb789	-0.035087142
119	0xbd02b731	-0.031912986
120	0x3c66bf1c	0.01408365
121	0xbdaef9dc	-0.08543751
122	0x3d8913f4	0.06693259
123	0xbd854445	-0.06507162
124	0x3c96da99	0.018414782
125	0xbd9763ce	-0.07392083
126	0x3d48896b	0.048959177
127	0x3d65bf3e	0.056090586
128	0x3c531a94	0.012884755
129	0xbd8e44b0	-0.06946695
130	0xbd96d0ba	-0.0736403
131	0xbd0c9b42	-0.034327753
132	0xbd9fbe35	-0.07799951
133	0x3d7f838b	0.06238131
134	0x3c1fefd3	0.009761768
135	0xbd87d70c	-0.06632814
136	0xbd47d9f0	-0.048791826
137	0x3da66807	0.081253104
138	0xbc7b36a7	-0.015332854
139	0x3cdc3fb3	0.026885843
140	0xbd9580ae	-0.07299934
141	0xbd89f699	-0.06736488
142	0x3d978d22	0.07399966
143	0x3bf09b7a	0.007342753
144	0xbc25944b	-0.010106157
145	0x3cae3cbe	0.021269199
146	0xbd8c4745	-0.06849531
147	0xbd4b5a1b	-0.04964648
148	0xbd6a4817	-0.057197656
149	0x3ca21c87	0.019788994
150	0x3d94803b	0.072510205
151	0xbcd5241e	-0.026018199
152	0x3cbfbb6d	0.023404801
153	0xbd9c177d	-0.076216675
154	0x3d07ebb2	0.03318376
155	0x3d21478b	0.03937487
156	0xbd1bfd29	-0.03808323
157	0xbd98c708	-0.07459837
158	0x3d11fb58	0.03564009
159	0xbd993c31	-0.07482184
160	0xbd89bc62	-0.06725384
161	0x3dad3ff8	0.08459467
162	0x3caa45a6	0.020785164
163	0xbd925e79	-0.071469255
164	0xbd063230	-0.032762706
165	0xbdaeb894	-0.08531299
166	0xbbe39177	-0.006944831
167	0x3baa3a48	0.005194936
168	0xbbb561ab	-0.0055353246
169	0x3b61dbf2	0.0034463373
170	0xbd80e846	-0.06294303
171	0x3d4761b2	0.048677154
172	0x3d88eb37	0.06685489
173	0xbdb3d46e	-0.08780752
174	0xbd7f9996	-0.06240233
175	0xbd9959a9	-0.074878044
176	0x3c9e5bab	0.01933082
177	0xbbd86f95	-0.0066050985
178	0x3d37dcaf	0.044888195
179	0xbd645c1e	-0.055751912
180	0xbd8b3cd0	-0.067987084
181	0x3cab9ac9	0.02094783
182	0x3cf0bedd	0.029387886
183	0xbb0d3922	-0.0021548946
184	0x3d458e9b	0.048231702
185	0xbd878507	-0.0661717
186	0xbc610dc6	-0.013736194
187	0xbb2abfc0	-0.0026054233
188	0xba0e9e0b	-0.00054404204
189	0xbd80a6a7	-0.062817864
190	0x3d51a6f6	0.051184617
191	0xbc1d1102	-0.0095865745
192	0xbd5bab73	-0.053630304
193	0xbc9e9212	-0.019356761
194	0x3c9a9519	0.018869923
195	0x3d04b501	0.03239918
196	0x3d9a646f	0.075386874
197	0xbd3083c8	-0.043094426
198	0xbcc8b639	-0.024500953
199	0xbca4678f	-0.020068912
200	0xbcb81d16	-0.022474807
201	0x3d34f78d	0.044181395
202	0x3d8c4c5f	0.06850504
203	0x3bd43a49	0.0064766747
204	0xbd7dbd48	-0.06194809
205	0xbd4e8e40	-0.05042863
206	0x3d3a83d9	0.045535896
207	0xbc393978	-0.0113052055
208	0xbd99ea9c	-0.07515451
209	0x3cd8498e	0.026402261
210	0x3db16c38	0.08663219
211	0xbd82c9e2	-0.06386162
212	0x3d18139e	0.037128083
213	0xbc293a0c	-0.010328781
214	0x3d55839b	0.052127462
215	0x3c8faf6e	0.017539706
216	0xbd91db03	-0.07121851
217	0xbc8f4139	-0.017487155
218	0x3b004637	0.0019573101
219	0x3c305f98	0.010764979
220	0x3d53b875	0.051689584
221	0xbce07568	-0.027399734
222	0x3d88f844	0.06687978
223	0x3c7828af	0.0151464185
224	0x3c3dcb3a	0.0115840975
225	0xbd89dd21	-0.0673163
226	0xbcc48e4c	-0.023993634
227	0x3d66531d	0.056231607
228	0x3ca1cb09	0.019750135
229	0x3c444bb1	0.011980937
230	0x3c821eda	0.015883852
231	0x3cc789cb	0.024357697
232	0x3cfecd95	0.031103889
233	0x3c23aa58	0.009989344
234	0x3d2e0d92	0.04249341
235	0x3d062383	0.03274871
236	0xbd7efc51	-0.062252346
237	0xbcebe784	-0.028796919
238	0x3d916647	0.07099586
239	0xbc016db3	-0.0078996895
240	0xbd764555	-0.060124714
241	0x3cab95d8	0.020945475
242	0x3ce06643	0.027392512
243	0xbcaf1536	-0.021372419
244	0xbda35b13	-0.079763554
245	0xbc83e8a3	-0.01610214
246	0x3d71b3c7	0.05900934
247	0xbb2814af	-0.0025647094
248	0xbd22d91c	-0.039757833
249	0xbc6b6de2	-0.01436946
250	0x3d994b87	0.07485109
251	0x3d9ed660	0.077557325
252	0xbd880efb	-0.06643482
253	0x3c26a65c	0.010171499
254	0xbc30a6e6	-0.010781979
255	0x3cba9e48	0.022780553

fusion.2.bias f4 [64]
0	0x3d1a9683	0.037741195
1	0xbd02c39d	-0.031924833
2	0xbd74fa22	-0.059808858
3	0x3c2b4823	0.01045421
4	0x3d2b1631	0.04176921
5	0x3daa2450	0.08307707
6	0xbd2e1f7b	-0.04251049
7	0xbcc30c42	-0.023809556
8	0x3d3084e7	0.043095496
9	0xbbf56386	-0.0074886708
10	0x3d13a1e2	0.036043055
11	0xbd7c5dfb	-0.061613064
12	0x3d5bb1d3	0.053636383
13	0xbd819b2b	-0.06328424
14	0x3d2879bd	0.041131724
15	0xbd2ad7e1	-0.041709784
16	0x3d9db547	0.077005915
17	0xbc7f5db8	-0.015586309
18	0x3d6c6739	0.05771563
19	0x3d9f57d7	0.07780426
20	0x3da34c63	0.07973554
21	0x3cebbfad	0.028777922
22	0xbd83b54e	-0.064310655
23	0xbd386c82	-0.045025356
24	0x3d9bac98	0.07601279
25	0xbcd008cf	-0.025394825
26	0x3cec6534	0.028856851
27	0xbbb2c06b	-0.005455067
28	0xbd526e00	-0.051374435
29	0xbd4075dd	-0.046987403
30	0xbd0e7a7a	-0.03478477
31	0x3d0b7823	0.03405012
32	0x3d777a67	0.060419466
33	0x3d1b703d	0.037948836
34	0xbc327505	-0.010892157
35	0x3d9a0ecd	0.07522354
36	0x3d008eaf	0.031386074
37	0x3c6625be	0.014047084
38	0x3d2b905b	0.041885715
39	0xbc94360d	-0.01809218
40	0x3cdc215e	0.02687138
41	0xbd62f94b	-0.055413526
42	0xbd879b5a	-0.06621428
43	0xbcac9b71	-0.021070214
44	0xbd82af51	-0.06381095
45	0xbdaf1e8e	-0.0855075
46	0x3d8af2a0	0.06784558
47	0x3d99df2c	0.0751327
48	0xbcd9a108	-0.026566043
49	0x3d9752d4	0.07388845
50	0xbd577571	-0.052602235
51	0x3d5c038e	0.053714328
52	0x3d3b8e34	0.045789912
53	0xbb71b4cd	-0.0036881447
54	0xbd890932	-0.06691207
55	0x3c9e6c52	0.01933876
56	0x3d8b256e	0.067942485
57	0x3d9c3e26	0.076290414
58	0xbcb75bcd	-0.022382641
59	0x3bf11c2f	0.007358096
60	0xbdac1d36	-0.08404009
61	0xbccb278d	-0.024799133
62	0x3dad8e35	0.084743895
63	0x3cc7492e	0.024326887
